…
', '珊瑚', '疣猪', '白鹭', '秃鹫', '穿山甲', '绵羊', '老虎', '老鹰', '老鼠', '考拉', '臭鼬', '苍蝇', '藏獒', '藏羚羊', '蚂蚁', '蚊子', '蚯蚓', '蜂鸟', '蜗牛', '蜘蛛', '蜜蜂', '蜻蜓', '蝉', '蝗虫', '蝙蝠', '蝴蝶', '螳螂', '蟑螂', '蟒蛇', '袋鼠', '金丝猴', '金钱豹', '锤头鲨', '锦鲤', '长颈鹿', '雕', '青蛙', '食蚁兽', '驴', '驼鹿', '骆驼', '魔鬼鱼', '鲨鱼', '鲸鱼', '鳄鱼', '鸡', '鸭', '鸭嘴兽', '鸳鸯', '鸵鸟', '鸽子', '鹤', '鹦鹉', '鹭鸶', '麻雀', '黑熊', '龙虾', '龟']
Model: "sequential"
_________________________________________________________________
Layer (type)                 Output Shape              Param #   
=================================================================
rescaling (Rescaling)        (None, 224, 224, 3)       0         
_________________________________________________________________
conv2d (Conv2D)              (None, 222, 222, 32)      896       
_________________________________________________________________
max_pooling2d (MaxPooling2D) (None, 111, 111, 32)      0         
_________________________________________________________________
conv2d_1 (Conv2D)            (None, 109, 109, 64)      18496     
_________________________________________________________________
max_pooling2d_1 (MaxPooling2 (None, 54, 54, 64)        0         
_________________________________________________________________
flatten (Flatten)            (None, 186624)            0         
_________________________________________________________________
dense (Dense)                (None, 128)               23888000  
_________________________________________________________________
dense_1 (Dense)              (None, 108)               13932     
=================================================================
Total params: 23,921,324
Trainable params: 23,921,324
Non-trainable params: 0
_________________________________________________________________
Epoch 1/20
  3/293 [..............................] - ETA: 1:28 - loss: 4.7241 - accuracy: 0.0000e+002022-06-04 20:12:17.634656: W tensorflow/core/lib/png/png_io.cc:88] PNG warning: iCCP: known incorrect sRGB profile
…
